…
  layer_dense(units = 1,
              kernel_initializer = &quot;uniform&quot;, activation = &quot;sigmoid&quot;) %&gt;%
  
  compile(
        optimizer = &#39;adamax&#39;,
        loss      = &#39;binary_crossentropy&#39;,
        metrics   = c(&quot;binary_accuracy&quot;, &quot;mse&quot;)
    )

summary(model_keras)</code></pre>
<pre><code>## ___________________________________________________________________________
## Layer (type)                     Output Shape                  Param #     
## ===========================================================================
## dense_1 (Dense)                  (None, 32)                    992         
## ___________________________________________________________________________
## dropout_1 (Dropout)              (None, 32)                    0           
## ___________________________________________________________________________
## dense_2 (Dense)                  (None, 16)                    528         
## ___________________________________________________________________________
## dropout_2 (Dropout)              (None, 16)                    0           
## ___________________________________________________________________________
## dense_3 (Dense)                  (None, 8)                     136         
## ___________________________________________________________________________
## dropout_3 (Dropout)              (None, 8)                     0           
## ___________________________________________________________________________
## dense_4 (Dense)                  (None, 1)                     9           
## ===========================================================================
## Total params: 1,665
## Trainable params: 1,665
## Non-trainable params: 0
## ___________________________________________________________________________</code></pre>
<pre class="r"><code>fit_keras &lt;- fit(model_keras, 
    x = as.matrix(train_data_bk), 
    y = train_y_drop,
    batch_size = 32, 
    epochs = 20,
…
library(lime)    # for explaining models
library(magick)  # for preprocessing images
library(ggplot2) # for additional plotting</code></pre>
<ul>
<li>Loading the pretrained Imagenet model</li>
</ul>
<pre class="r"><code>model &lt;- application_vgg16(weights = &quot;imagenet&quot;, include_top = TRUE)
model</code></pre>
<pre><code>## Model
## ___________________________________________________________________________
## Layer (type)                     Output Shape                  Param #     
## ===========================================================================
## input_1 (InputLayer)             (None, 224, 224, 3)           0           
## ___________________________________________________________________________
## block1_conv1 (Conv2D)            (None, 224, 224, 64)          1792        
## ___________________________________________________________________________
## block1_conv2 (Conv2D)            (None, 224, 224, 64)          36928       
## ___________________________________________________________________________
## block1_pool (MaxPooling2D)       (None, 112, 112, 64)          0           
## ___________________________________________________________________________
## block2_conv1 (Conv2D)            (None, 112, 112, 128)         73856       
## ___________________________________________________________________________
## block2_conv2 (Conv2D)            (None, 112, 112, 128)         147584      
## ___________________________________________________________________________
## block2_pool (MaxPooling2D)       (None, 56, 56, 128)           0           
## ___________________________________________________________________________
## block3_conv1 (Conv2D)            (None, 56, 56, 256)           295168      
## ___________________________________________________________________________
## block3_conv2 (Conv2D)            (None, 56, 56, 256)           590080      
## ___________________________________________________________________________
## block3_conv3 (Conv2D)            (None, 56, 56, 256)           590080      
## ___________________________________________________________________________
## block3_pool (MaxPooling2D)       (None, 28, 28, 256)           0           
## ___________________________________________________________________________
## block4_conv1 (Conv2D)            (None, 28, 28, 512)           1180160     
## ___________________________________________________________________________
## block4_conv2 (Conv2D)            (None, 28, 28, 512)           2359808     
## ___________________________________________________________________________
## block4_conv3 (Conv2D)            (None, 28, 28, 512)           2359808     
## ___________________________________________________________________________
## block4_pool (MaxPooling2D)       (None, 14, 14, 512)           0           
## ___________________________________________________________________________
## block5_conv1 (Conv2D)            (None, 14, 14, 512)           2359808     
## ___________________________________________________________________________
## block5_conv2 (Conv2D)            (None, 14, 14, 512)           2359808     
## ___________________________________________________________________________
## block5_conv3 (Conv2D)            (None, 14, 14, 512)           2359808     
## ___________________________________________________________________________
## block5_pool (MaxPooling2D)       (None, 7, 7, 512)             0           
## ___________________________________________________________________________
## flatten (Flatten)                (None, 25088)                 0           
## ___________________________________________________________________________
## fc1 (Dense)                      (None, 4096)                  102764544   
## ___________________________________________________________________________
## fc2 (Dense)                      (None, 4096)                  16781312    
## ___________________________________________________________________________
## predictions (Dense)              (None, 1000)                  4097000     
## ===========================================================================
## Total params: 138,357,544
## Trainable params: 138,357,544
## Non-trainable params: 0
## ___________________________________________________________________________</code></pre>
<ul>
<li>loading my own model from <a href="https://shirinsplayground.netlify.com/2018/06/keras_fruits/">last week’s post</a></li>
</ul>
<pre class="r"><code>model2 &lt;- load_model_hdf5(filepath = &quot;/Users/shiringlander/Documents/Github/DL_AI/Tutti_Frutti/fruits-360/keras/fruits_checkpoints.h5&quot;)
model2</code></pre>
<pre><code>## Model
## ___________________________________________________________________________
## Layer (type)                     Output Shape                  Param #     
## ===========================================================================
## conv2d_1 (Conv2D)                (None, 20, 20, 32)            896         
## ___________________________________________________________________________
## activation_1 (Activation)        (None, 20, 20, 32)            0           
## ___________________________________________________________________________
## conv2d_2 (Conv2D)                (None, 20, 20, 16)            4624        
## ___________________________________________________________________________
## leaky_re_lu_1 (LeakyReLU)        (None, 20, 20, 16)            0           
## ___________________________________________________________________________
## batch_normalization_1 (BatchNorm (None, 20, 20, 16)            64          
## ___________________________________________________________________________
## max_pooling2d_1 (MaxPooling2D)   (None, 10, 10, 16)            0           
## ___________________________________________________________________________
## dropout_1 (Dropout)              (None, 10, 10, 16)            0           
## ___________________________________________________________________________
## flatten_1 (Flatten)              (None, 1600)                  0           
## ___________________________________________________________________________
## dense_1 (Dense)                  (None, 100)                   160100      
## ___________________________________________________________________________
## activation_2 (Activation)        (None, 100)                   0           
## ___________________________________________________________________________
## dropout_2 (Dropout)              (None, 100)                   0           
## ___________________________________________________________________________
## dense_2 (Dense)                  (None, 16)                    1616        
## ___________________________________________________________________________
## activation_3 (Activation)        (None, 16)                    0           
## ===========================================================================
## Total params: 167,300
## Trainable params: 167,268
## Non-trainable params: 32
## ___________________________________________________________________________</code></pre>
</div>
<div id="load-and-prepare-images" class="section level2">
<h2>Load and prepare images</h2>
<p>Here, I am loading and preprocessing two images of fruits (and yes, I am cheating a bit because I am choosing images where I expect my model to work as they are similar to the training images…).</p>
…
